TrainData.pth (torch, 7847 bytes, 6 tensors)

l1.weight f4 [8, 95]
00000000: 0ca0 4f3f 682d 683f c2f3 c33e a82d 953e
00000010: 3d6e eb3e a299 5bbf cbe2 403f b7f3 103f
00000020: 03f8 edbe 6734 72bf e8fd 6ebe ce51 2d3f
00000030: ee06 48bf 8af3 57bc 52f3 39bf 844e 4b3f
00000040: c3da bebe 5c66 c8be 4309 e0bd dd22 4a3f
00000050: 33ba e33e 8f1a f83e 59b3 bebe 7604 973e
00000060: 8698 34bf 780e 2b3f b0f8 223f cd76 6c3f
00000070: 25b7 343f e087 733f 0d79 4b3f 518b 223f
00000080: 4a16 403f d60e b43e 5d2d 0fbf 128d 893f
00000090: e958 99bf 33f9 4b3f 44d7 c93d 1763 143f
000000a0: 4fea 373f 7643 94bd 7d53 8b3e 59f6 5f3f
000000b0: e886 713f 2761 83be a202 9cbe 6d40 573e
000000c0: 8ea9 4e3f bdd9 263f d347 15bf b799 5d3c
000000d0: 723e 02bf 12b5 ffbe 0e3c 84be 1c09 5f3f
000000e0: 357c 01bb 3067 5abf f1b0 75be 6d4b 05bf
000000f0: cecf 603f 64b8 2c3f 0ca6 0cbe c505 463f
00000100: 3b20 73bf 3cbb 63be c4b3 093f e650 9abf
00000110: 89fb bb3e 7dd3 673f 018c 933e d358 e93f
00000120: 0e25 733f 2e38 203f 94ef 353e 406f 11bf
00000130: 4e70 6abd a074 783f 011b 213e 0fde c43e
00000140: 281e 0b3f 7c2a 8ebf 7979 c6bd 2da0 333e
00000150: e68d 9abf 6dfb afbe 9921 8b3c bbec 9dbe
00000160: b99f 14bb d180 a53f 8d5b 7ebe 2a19 453f
00000170: 560b 293f 985a 84be aae7 54bf 041d 1e3f
00000180: 70d7 cdbe eef6 e53e 2d43 feb9 cbed cabe
00000190: 62c3 ccbd 2b4f 0bbf 5aee 1b3f 74e5 a7bc
000001a0: dc42 57be 1e9e 90be fb86 ce3e 03f6 653f
000001b0: 7a0b f93e 64ba 8f3f 6635 30bf 5a2b 87bf
000001c0: 8f4e 2d3f acb3 61be 17e5 f63e 6c56 fcbc
000001d0: e7fa 2e3f 47e1 313f d164 163f f9ff 843f
000001e0: 4f4c 873f 95b8 113f a656 813f 6928 03bf
000001f0: 9c15 cfbe ed7d 0cbf 12a4 5abe 1f56 00bf
00000200: 324d 2f3f 28e0 8dbf f803 fa3e 7108 41bf
00000210: 7ef1 5cbf a397 303f ee89 e43d 0784 3ebf
00000220: 8b2f 323f fb0c e83e 3860 713f 2cde 7e3f
00000230: cbe3 283f 3f91 04be a98d ca3e 71f8 43be
00000240: f185 04bf 1002 8bbe e515 023f ff6e 01bf
00000250: 610b ebbe 604c 48bf e52a b33d 06c8 cebd
00000260: ba5b 40bd 7ab8 9abe 86da 49bf 2d52 4f3f
00000270: 7fad 8f3f 4239 2e3f fe35 c73b 1ee9 81bd
00000280: 25e7 7fbc ea65 9b3f 5528 41bf d270 a13f
00000290: fb34 1cbe 6358 053f 1cff 5cbf b250 053f
000002a0: 5f12 0e3e 79e2 8dbe 9c13 8ebe 187f 763f
000002b0: 7cd9 e33d 8a07 223f b077 cbbd 53fe 7e3f
000002c0: daba 55bf d7b3 423f bd21 133f 06b8 49bf
000002d0: 9093 45be edd2 813e 6280 f9bd 696f 733f
000002e0: c0cd 47bf 116d 3ebc c626 a03e d6e8 10bf
000002f0: e121 b3be 4733 e3bd 4a51 1e3f abc9 1dbf
00000300: be5c 043f 4a10 ef3e 959c 0abe 24f6 85bd
00000310: f54c 04be b6ec 0e3f cd56 193f 9b6d d2be
00000320: 24d5 d4be 8d02 35bd a9de 703f 08ff 78bd
00000330: 3a6a 863f 2e1b 533f ae77 f6bd 3876 923f
00000340: a28c 09bd 0f2e 4e3d f075 4d3d 574b 5b3f
00000350: 3289 153f 394d 5c3e 8fc1 783f 2681 9f3f
00000360: c5b8 37bd c724 933f cfcd e33c 412b 1cbf
00000370: dd08 a7bd b9fd 7bbe 17e0 53bd 1b65 173f
00000380: ef64 003f a6b0 273f 253e 38bf 5a2b 71bf
00000390: a77a dabd 8063 38bf 9f75 b8be 8bf4 383f
000003a0: 95fd c4bd d712 8b3f 50a2 923f 93c6 343f
000003b0: 0b15 14be 8d09 7fbe a3f4 d4be 3a64 04bd
000003c0: a148 963f 5999 0bba e0db 9b3f 8538 9b3f
000003d0: 2376 50bd 1fcd 97bd 91bd 07bf 4c6b 27be
000003e0: e137 b5be 8e47 39bf d6ad 853f d2cf aa3f
000003f0: 9928 643f 9cde cc3d d6e4 2cbe ebc5 7bbf
0.8110359 0.90694284 0.3827191 0.29136395 0.45982543 -0.857813 0.7534606 0.5662188
-0.4647828 -0.9461121 -0.23339045 0.6770295 -0.78135574 -0.013180623 -0.726369 0.7941668
-0.37276277 -0.39140594 -0.109392665 0.7895945 0.44477996 0.48457763 -0.37246206 0.2949559
-0.7054523 0.6681895 0.63660717 0.92368776 0.70591956 0.95129204 0.79481584 0.6349383
0.7503401 0.3516757 -0.55928594 1.0746176 -1.1980258 0.7967712 0.09855512 0.579637
0.718419 -0.0723943 0.27212134 0.8748527 0.94346476 -0.2566006 -0.3047076 0.2102067
0.8072747 0.6517599 -0.5831272 0.013525418 -0.50876534 -0.49942833 -0.25827068 0.87123275
-0.001975787 -0.853137 -0.23993279 -0.52068216 0.87817085 0.6746886 -0.13735217 0.77352554
-0.94971055 -0.22239393 0.53789926 -1.2055938 0.36715344 0.9055708 0.28817752 1.8230232
0.94978416 0.62585723 0.17767173 -0.5681038 -0.05723601 0.97052956 0.15732957 0.38450667
0.5434289 -1.1106715 -0.09691138 0.17541571 -1.2074554 -0.3437151 0.016983794 -0.30844674
-0.002267821 1.2929937 -0.24839611 0.7699152 0.6603292 -0.25850368 -0.8316599 0.61763024
-0.40203428 0.44914955 -0.00048496705 -0.39634547 -0.09998204 -0.54417676 0.6091057 -0.020495154
-0.21021599 -0.28245634 0.40337357 0.8982851 0.48641568 1.1228757 -0.6883148 -1.0560105
0.67697996 -0.22041196 0.48221657 -0.030802928 0.68351597 0.6948437 0.58747584 1.0390617
1.0570163 0.56922275 1.0104568 -0.51233536 -0.40446174 -0.5487965 -0.2135165 -0.5013141
0.68477166 -1.1084032 0.48831153 -0.75403506 -0.8630599 0.6898138 0.111591205 -0.7442021
0.69603795 0.45322403 0.94287443 0.9955776 0.65972584 -0.12946032 0.39561203 -0.19137742
-0.5176688 -0.2715001 0.5081466 -0.5055999 -0.4590712 -0.7824154 0.08748416 -0.10096745
-0.046962477 -0.3021887 -0.78849065 0.80984765 1.1224822 0.6805612 0.0060794344 -0.06343292
-0.015619074 1.2140477 -0.75452167 1.2612555 -0.15254585 0.5208799 -0.86326766 0.52076256
0.13874196 -0.27711847 -0.27749336 0.9628768 0.11125466 0.63292754 -0.09934938 0.9960682
-0.8348824 0.76055664 0.57473356 -0.7879642 -0.19294572 0.25356236 -0.1218269 0.95091873
-0.78048325 -0.011622683 0.31279582 -0.5660528 -0.34986785 -0.11093765 0.6184279 -0.61635846
0.51704013 0.46692115 -0.13536294 -0.06541088 -0.12919982 0.5582994 0.5989807 -0.41099247
-0.41568863 -0.044191886 0.9408975 -0.06079009 1.0501168 0.8246335 -0.12034546 1.1442327
-0.033581384 0.050336894 0.050161302 0.85661834 0.5841247 0.21513833 0.97170347 1.2461288
-0.044853944 1.1495599 0.027808098 -0.610035 -0.081559874 -0.24608506 -0.05172738 0.5913865
0.5015401 0.6550392 -0.71969825 -0.94206774 -0.10667925 -0.72026825 -0.36027238 0.7224814
-0.096186794 1.0865124 1.1455784 0.706155 -0.14461152 -0.24905987 -0.41592893 -0.032322146
1.1740915 -0.000532528 1.2176476 1.2126623 -0.050893914 -0.074121706 -0.5302363 -0.16349524
-0.35394195 -0.7237481 1.0443676 1.3344672 0.8912445 0.10003397 -0.16884169 -0.98348874

l1.bias f4 [8]
00000000: 39ad 9a3f 8ec3 473f 91eb 373f 7b6d 343f
00000010: e963 8e3f 5d12 6a3f 300f 663f f3f3 733f
1.2084113 0.7803277 0.7184382 0.70479554 1.112424 0.9143427 0.89866924 0.9529411

l2.weight f4 [8, 8]
00000000: 7aae 3540 78d0 0bc0 2cc8 29bf 09ac 63bf
00000010: 6fe6 c83f 14d1 1abe 27fc 3cbf 6d5c 9f3f
00000020: d064 debc bc57 51be c882 39bd b8ac 5dbd
00000030: 4fb8 3abe 6691 61be 6295 6abe d898 29bd
00000040: 36d0 b0bf 35c2 9cbf a4c7 2c3f 3dd2 963f
00000050: 5b31 ef3e 7d17 1d40 b7e8 263f 1b42 fa3e
00000060: 5f88 1340 92c0 5140 9bf2 2c40 ea6f 35bf
00000070: 1984 78bf 0f2b c63e 31d0 5e3f 1b3d d03f
00000080: 5d35 093e 9bb1 9e3f 9f32 d43d a234 c0bf
00000090: da92 b33e 8827 373f 7812 7e3f e378 0740
000000a0: 1521 a63f bdef 013f 5c00 02c0 8093 353f
000000b0: bf9b 613f 88b7 d13d 94e4 f0bf 5682 db3f
000000c0: 779f 09be 1c48 07bf 5fb1 1f3f 3ea3 08bf
000000d0: 223f 0240 df56 ab3f 4c6b 1040 d84c 4bbe
000000e0: 0434 3b3e 4796 bd3e f75e 89bf da9e 0740
000000f0: 39da ad3f a0b8 86bf 6a79 d03e 3588 d43f
2.8387742 -2.184599 -0.66321063 -0.8893438 1.5695323 -0.1511882 -0.73822254 1.2450081
-0.02714768 -0.20443624 -0.04529074 -0.054119796 -0.1823437 -0.22028121 -0.22908548 -0.04140553
-1.3813541 -1.2246767 0.6749213 1.178291 0.46717343 2.4545586 0.65198845 0.4887856
2.3051984 3.2773786 2.7023075 -0.7087389 -0.97076565 0.38704726 0.87036425 1.6268648
0.13399263 1.2397951 0.10361218 -1.5016062 0.35072976 0.71544695 0.9924693 2.1167533
1.2978846 0.50756437 -2.031272 0.7092819 0.88128275 0.10240084 -1.8819757 1.714915
-0.13439737 -0.52844405 0.6238002 -0.5337409 2.0351033 1.3385886 2.256549 -0.19853532
0.18281561 0.37028715 -1.0732106 2.1190705 1.3582221 -1.0525093 0.40717632 1.6604067

l2.bias f4 [8]
00000000: b310 663f 7098 4abe 75e6 963e 8b6f c23e
00000010: 2464 0fbf fa73 133d c3e1 473f f209 ac3e
0.8986923 -0.19784713 0.294727 0.37975726 -0.5601218 0.035999276 0.7807886 0.33601338

l3.weight f4 [26, 8]
00000000: 03ed 30bf 2808 193d d033 093c 1a56 a6bf
00000010: 17e6 d1bf e8e8 8abe 8a99 983e 026b c53e
00000020: b4b0 0fc0 ac15 d0bd b084 aa3e c9bd 12c0
00000030: 8025 67c0 0555 43c0 3736 083f 2e23 873f
00000040: 6e93 29c0 889f 08bd 6b2e bf3e 4a29 bd3d
00000050: fdea 01c0 0a8c 27bf 713c efbe 2511 f83e
00000060: a513 a7be 200c d83d e8fe 063e ba8f 3ac0
00000070: f2c2 7bbf c7ee 2cc0 edc4 423f 3c0e 973e
00000080: 1c43 073e f9ba 8c3e 83d6 63be 7bbe 8ebf
00000090: bc33 36be 7d0f 853e ed3b 50bf 6868 523e
000000a0: 325a e83e 0672 6fbe d697 62bd edb4 bb3e
000000b0: 0e8d 87be 3c1b 46c0 bd28 053f f80b 35c0
000000c0: 5f09 f73e 9a53 51be 02db 51be aff9 01bf
000000d0: 6c2f 8dbd 33fd 90c0 5784 1a3f 9bff c9be
000000e0: 1a58 b73e 68d5 03bd b315 54c0 c3e3 db3d
000000f0: aa07 093e 111f 91bf ef18 8e3e acbb dabe
00000100: 76e2 bebf 520a 92be bc03 e4bd 88cf d43e
00000110: dd33 933e f15c 3cc0 d82f 683e 7b0a 69bf
00000120: 143d d1bf 9293 013e b42c c8bf 3217 9d3f
00000130: 364f 18bf 71b5 05c0 c8d2 12c0 c0a8 5ebd
00000140: be76 253e 70aa 71bd adc0 953e 2f1f 73be
00000150: b8a1 e7bd 81c4 9cbf 5f3a 043c 79f7 02bf
00000160: 29d5 b8bd d578 973e 0d65 1bbf 0bc5 163f
00000170: c951 d83e 4e48 6cbf 2afb d3bf 07f6 02bf
00000180: 5adb d1bd 9803 0c3d 122d 0ac0 7ada 493f
00000190: 9b24 c03e 3749 57c0 b3e9 b2bd e9cf 8ebf
000001a0: 52cc fcbf ce4a eabd 32c0 a73f 20f8 31c0
000001b0: e9fc 3dc0 5cc2 d1be b449 68bb 51c5 82be
000001c0: d68e 3b3e 35fb a13e 0288 a7bf 76f8 02bf
000001d0: 9b2a c5bf d66c d63e c2e6 a0bf 595a 393f
000001e0: 5386 eebe 1083 e63c 2c39 06c0 809d d73c
000001f0: 9efd 303e 46b0 b13e 52af 37c0 6b05 a53c
00000200: d34f a9bf 258e b13e 2d74 583f f366 3a3f
00000210: e961 2fc0 c6fa fdbf d0ef e63e 71b9 3dc0
00000220: fd8a 07bf 6cb3 cbbd de05 89bf 7e8f 80bf
00000230: a12f 2dbf 85ac 55bf 2f5d c5be 90e4 96bf
00000240: 272c 623f 1cac 71be 64cd b03e 2c35 9fbf
00000250: df93 3ac0 6d28 a4bf df7f 303f 3d2a 1dbf
00000260: c823 063f cf1c 8dbe bd3f da3a ff81 26c0
00000270: e7af 63c0 946b ad3e 8fe7 91be 948e b43e
00000280: efa6 e8bf cef7 82be dcee ccbe d93c 363f
00000290: 8427 413f 9042 bbbe 73bd f9bd 7596 5dc0
000002a0: 8035 323f 62db 623e 0cc8 02c0 c5b9 bdbe
000002b0: 8382 2cbe 0658 e73d df5a a5bf 6ba8 1fbe
000002c0: 9aed c1bf f855 80be 0bd6 74bf 451c f43e
000002d0: 6f68 44bf 394d b8bf f8de 2cbe f356 093f
000002e0: bcb9 ef3e 8aa6 723e 8ad8 2dc0 bc25 ba3e
000002f0: ec66 4cc0 573f ba3d 41d0 00c0 0585 0f3e
00000300: e6be 8fbf a02d 083c 59dd 513f 8059 dabe
00000310: b43e febe 8b08 d7bf 1615 0d3f 6494 68bf
00000320: 29b2 373f a31c 8b3e ec40 edbf 0cbc 6fbf
00000330: 49b8 debf acd3 9e3c d024 c33e e40b b7bb
-0.6911165 0.037361294 0.0083741695 -1.2995026 -1.6398343 -0.27130818 0.2980464 0.38558203
-2.24516 -0.101603836 0.33304358 -2.2928336 -3.6116638 -3.0520642 0.53207725 1.0557611
-2.6496234 -0.033355266 0.37340102 0.09236391 -2.0299675 -0.6544806 -0.467258 0.4845058
-0.32632175 0.10549188 0.13183177 -2.9150224 -0.9834434 -2.7020738 0.76081735 0.29503047
0.13209194 0.274864 -0.22249798 -1.115188 -0.17793173 0.2598838 -0.8134144 0.2054764
0.45381314 -0.2338334 -0.055320583 0.36661473 -0.26474804 -3.0954123 0.52015287 -2.8288555
0.48249337 -0.20442048 -0.20493701 -0.5077161 -0.06893811 -4.530908 0.60358185 -0.39452824
0.35809404 -0.032185942 -3.3138244 0.107368015 0.1338183 -1.1337606 0.27753398 -0.42721307
-1.491286 -0.285235 -0.11133525 0.41564584 0.28750506 -2.9431727 0.22674501 -0.91031617
-1.6346765 0.1265395 -1.5638642 1.2272704 -0.59495866 -2.0891993 -2.294115 -0.05436015
0.16158578 -0.059000432 0.29248562 -0.23742364 -0.11310142 -1.2247468 0.008070557 -0.51158863
-0.09025032 0.29584375 -0.60701066 0.58894414 0.42249897 -0.9229783 -1.6561024 -0.5115666
-0.10246916 0.034183115 -2.1590009 0.78848994 0.37527928 -3.3638437 -0.08735981 -1.1157199
-1.9749854 -0.11440049 1.3105528 -2.7807693 -2.9685614 -0.40968597 -0.003544432 -0.25541165
0.18316206 0.31636968 -1.3088381 -0.5116037 -1.5403627 0.4187991 -1.2570422 0.72403485
-0.46586856 0.028138667 -2.0972395 0.026320219 0.17284247 0.34704798 -2.8700757 0.020144185
-1.3227485 0.3467876 0.8455227 0.7281334 -2.740351 -1.9842155 0.45104837 -2.9644434
-0.52946454 -0.099463314 -1.0704916 -1.004379 -0.676508 -0.8346637 -0.38547656 -1.1788502
0.8834862 -0.23600811 0.345317 -1.2438102 -2.9152753 -1.2824837 0.68945116 -0.61392576
0.5239835 -0.27561042 0.0016651076 -2.6016843 -3.5576112 0.33871138 -0.28496978 0.35265028
-1.8175944 -0.25579685 -0.40025985 0.71186596 0.7545092 -0.3657422 -0.12194338 -3.4623082
0.69612885 0.22154 -2.04346 -0.37055793 -0.16846661 0.11296086 -1.2918357 -0.1559159
-1.5150635 -0.2506559 -0.95639104 0.47677818 -0.76721853 -1.4398566 -0.16881931 0.536483
0.46821392 0.23696342 -2.7163415 0.36356914 -3.1937819 0.09094112 -2.0127108 0.14015587
-1.1230133 0.008311659 0.81978375 -0.42646408 -0.49657214 -1.6799482 0.551103 -0.90851426
0.71756226 0.27170286 -1.8535438 -0.9364631 -1.7399989 0.019388042 0.38114023 -0.0055861343

l3.bias f4 [26]
00000000: c4eb f9be c40d 4e3f 253f d7bd 0b24 0abf
00000010: 86cd 83be aa34 85be 31c4 8cbe b2aa 3bbd
00000020: 8169 e6be a7d8 313f 3faf 98be 1fb3 39be
00000030: 13ba bf3e d2d1 1d3f 9d92 c4be 4c2e 49be
00000040: 91b0 c73e 5752 97be 4466 113f c753 66bd
00000050: 9c5b 41bd 3c18 06bf 43f9 c73d 9d44 84be
00000060: dd30 263d 869b fd3e
-0.48812687 0.80489755 -0.10510091 -0.5396125 -0.2574274 -0.26016742 -0.27493432 -0.045817085
-0.45002368 0.6947121 -0.29821202 -0.18134736 0.3744665 0.61648285 -0.38393107 -0.19646567
0.39001897 -0.29555008 0.5679667 -0.05623224 -0.047206506 -0.5238073 0.0976434 -0.25833598
0.040573943 0.49532717
